gesture_model.tflite (tflite, 77072 bytes, 6 tensors)

sequential/dense_1/BiasAdd/ReadVariableOp f4 [15]
00000000: 6762 0d3d a2b1 fc3c fef1 dcbc 0000 0000
00000010: a2f5 403b 8d65 da3c 0000 0000 b073 463d
00000020: b479 b13c 7a69 783d a107 913d 3d6a 2e3c
00000030: 3a6d b3bb 7ea1 e33b a17a 15bd
0.034517672 0.03084642 -0.02697086 0.0 0.0029443284 0.026659751 0.0 0.048450172
0.021664478 0.060647465 0.07081533 0.010645446 -0.0054756673 0.0069467416 -0.0364939

sequential/dense_2/BiasAdd/ReadVariableOp f4 [5]
00000000: 1f33 37bc 9bef 783d 6ee5 463c 0001 67bd
00000010: 0c08 d3bc
-0.011181622 0.06077538 0.012139661 -0.056397438 -0.025760673

sequential/dense/BiasAdd/ReadVariableOp f4 [50]
00000000: a837 acba 0000 0000 0000 0000 0000 0000
00000010: 0000 0000 fb6b f43c 0000 0000 0000 0000
00000020: a1d6 09bc 0000 0000 1f17 13bc 3198 7f3b
00000030: 99ef b3bc 1861 da3b a283 2abc d7fe 3abc
00000040: 2446 0abb 0000 0000 0000 0000 e17d 213d
00000050: 0000 0000 0000 0000 331a b73c 8a75 aabc
00000060: b9fc f93c 0000 0000 0000 0000 eae0 02bb
00000070: 1f8d e43a 0000 0000 3600 06bb 9ff2 ae3a
00000080: 34e8 883c 0000 0000 7e08 37bc 8446 ef3c
00000090: 0000 0000 6e93 fe3b 0000 0000 b922 bf3c
000000a0: 22cf 963c 0b09 35bb 0000 0000 85e4 acba
000000b0: fe5f ad3a 0000 0000 1b07 083d 9f6b 343d
000000c0: e269 0b3d af4d 893c
-0.0013139145 0.0 0.0 0.0 0.0 0.029836645 0.0 0.0
-0.008412988 0.0 -0.0089776805 0.0039000625 -0.021964835 0.0066644065 -0.01040736 -0.011413298
-0.0021098936 0.0 0.0 0.039426688 0.0 0.0 0.02235136 -0.020808
0.030516015 0.0 0.0 -0.0019970485 0.0017437077 0.0 -0.0020446903 0.0013347453
0.016712286 0.0 -0.011171458 0.02920843 0.0 0.00776904 0.0 0.023331987
0.018409315 -0.0027623798 0.0 -0.0013190663 0.001322746 0.0 0.0332099 0.044047948
0.034036525 0.016760675

sequential/dense/MatMul f4 [50, 357]
00000000: b41a cd3d 5e7b e6bd 44c8 843d 85c3 56bd
00000010: dd16 b7bd aade 9c3d 0763 b3bd 9f16 41bd
00000020: 5f35 cdbd 0722 e5bd 0d37 123d 190a 793c
00000030: 82bd 4c3d 3c14 eebc 42b4 83bd a1d5 edba
00000040: 29a0 9f3c 250f c23d 2c15 d4bc 5ba5 cebc
00000050: 2145 bbbd 04f8 29bd 0530 a93c 392f b1bd
00000060: d8e8 dfbc b815 a3bd a749 9fbd 61a2 b53d
00000070: 7ebe c23d e59c f1bd b6a3 d93c c50d ccbd
00000080: eecf a13d 0d2e d23d c21e 553d eadb e93d
00000090: bd73 e33d aed9 e7bc 8d5a 1cbd cb3b bc3d
000000a0: a3a8 033d 3e07 ccbd f4cc 1b3d a41a a43d
000000b0: fa63 0b3d 7165 b2bd 511e 21bd 13c7 4a3d
000000c0: 51b2 edbc 32a0 9bbd 2e2c 3abd d765 98bd
000000d0: 5bb2 6e3d 507f 9dbd 5453 8cbd 59d6 0f3c
000000e0: 1f58 033d b5da f33d c72f 113d edb3 ccbd
000000f0: 5238 cfba 6e98 f73b 4cf7 94bd 12ea afbd
00000100: 5089 dc3d 9981 debd c4ef 94b9 f475 f33d
00000110: c156 893d ef97 943c 4566 f1bd 3db0 93bd
00000120: a24f c73c d1dd 943d e768 82bd 2d35 103d
00000130: 5cf9 2fbd db9f 343c 2f43 cebd 30d2 99bc
00000140: 912d e63d 1604 453d f5ed 11bd 49cb 893d
00000150: 47d5 87bc efdc d63c 3f3e e1bd f035 bc3d
00000160: 0ed1 c13d 2aff d8bd 6813 4cbd 7559 773d
00000170: 48dd 0abd f00b a7bd 6fa6 b03d f2fa bc3d
00000180: 995c 35bd 39ac e23d 85fa dabd 6d49 70bd
00000190: e9d8 84bd 2521 d53d a245 a8bc b1ef 383d
000001a0: e7c6 983d 2f08 e0bd ba96 9bbc 7c59 b1bc
000001b0: b795 d63d 513f a03d 13a9 b43d 53b1 893c
000001c0: 0879 803d 1538 723d a7f5 b1bd f0d0 953c
000001d0: 24c6 29bd aa1c ebbd 602c e2bd df2b cebc
000001e0: 0f70 433c 10b3 f33d 8f5a 6fbd fadd 05bd
000001f0: 6d1d 31bc 7cf1 c1bd 5c2f 553d 5642 f63b
00000200: d038 d5bd eebd 99bd 3dee ca3d f446 133d
00000210: 4571 0bba 766a 303b cef5 a9bc 6798 f4bc
00000220: 7651 523c a801 42bd 587b 80bd 2912 703d
00000230: ba2b 1b3d ca0f a63d 0faa c6bd dd45 bfbd
00000240: df2f b3bd 955f 5cbd 66ec 683d df9c 8abd
00000250: eb76 2e3d 23e8 38bd c9f5 613d be80 b1bc
00000260: e5c5 243c dc33 7b3d 0dba d83d f09c 82bc
00000270: ec0f 8b3d 356c 013d 06e5 9f3d 253f f13d
00000280: 9724 55bc 8b59 323c 149f 8cbd b913 b53d
00000290: 2b2c 83bd 397b 6b3d 8df6 433d d727 1b3d
000002a0: 7ce2 de3d 3047 cd3d e36e 833d be3a b2bd
000002b0: a50f 42bc 2b51 febc b1c1 42bc 3e86 c13d
000002c0: e2a8 ecbd a045 bf3c ad88 dfbd fdb5 aa3c
000002d0: b932 a1bc ded4 d23d 9947 1cbd 916e 95bd
000002e0: b68f d23d 88cb d73d d1b4 853d 3164 d9bd
000002f0: 0630 c63c 025e 03bd 8255 3cba 7e9a 363d
00000300: 92cf 753d 5a92 803d 8761 86bd 7c06 30bd
00000310: 094e efbc 1165 08bc bec5 3c3d 7185 eabd
00000320: 0471 8bbc b481 a33d f163 7e3d cc74 3b3d
00000330: b1c3 af3d e2fa b53d 6c7d 163c 9121 6e3d
00000340: 0450 5fbd 9ea2 4b3c 137d e2bb 666b 6cbd
00000350: 50b7 f13d 5319 f43b 46b8 3d3c e915 89bd
00000360: 430d d23d 97e6 9d3d e511 e9bd e03b a93d
00000370: 04fd 933d e020 cebd 55e8 dfbc d6d0 b13b
00000380: 7d05 29bb 31cb 6cbd 3842 dcba af85 8f3d
00000390: 41ba a23d b06d 5bbc 29b4 ddbd 4f66 d93d
000003a0: e397 9bbd 6bf8 ecbd 2259 883d 1c49 01bd
000003b0: a347 a9bc 7912 1fbd cefe dabc e3e5 87bd
000003c0: a2b8 a1bd 1b7b 8abd e076 e1bd 9e96 11bd
000003d0: 2464 cf3d 2f00 d5bd 1e17 c13c 1316 e8bd
000003e0: 0dc3 88bc e8af 9f3d 5fdc a4bd 4771 c3bd
000003f0: ec25 533c 24e2 113d 3131 b5ba 22ce a9bc
0.10014859 -0.11253999 0.0648351 -0.052432556 -0.08939908 0.07659657 -0.08759122 -0.047140714
-0.10019945 -0.11188131 0.03569703 0.015200161 0.049985416 -0.029062383 -0.06430866 -0.0018145331
0.01948555 0.09475545 -0.025889002 -0.025225332 -0.09144045 -0.04149629 0.02065278 -0.08651585
-0.027332708 -0.07963127 -0.0777772 0.08868862 0.0950899 -0.117975034 0.026567321 -0.09963564
0.079009876 0.1026269 0.052031286 0.114188984 0.1110606 -0.02830204 -0.038172293 0.09191092
0.032143246 -0.09962319 0.038037255 0.08012894 0.034030892 -0.08710755 -0.039335553 0.04950626
-0.029015692 -0.07598914 -0.04545229 -0.074412994 0.05827556 -0.076902986 -0.06851831 0.008779132
0.03206646 0.119069494 0.035445955 -0.099952556 -0.0015809631 0.007556013 -0.07273731 -0.08589567
0.10768378 -0.108645625 -0.000284074 0.11887732 0.06706 0.018138854 -0.117870845 -0.07211349
0.024329964 0.072688706 -0.06367665 0.035206962 -0.042962417 0.011024441 -0.10071408 -0.018776983
0.1123916 0.0480996 -0.035627324 0.06728227 -0.01658119 0.026228396 -0.109982006 0.09189975
0.09463702 -0.10595544 -0.049823195 0.060388047 -0.033902436 -0.08156574 0.08625495 0.092275515
-0.04427776 0.11068005 -0.10692314 -0.058663774 -0.06486685 0.104067124 -0.020541016 0.045150463
0.074598126 -0.10939061 -0.01899277 -0.021649115 0.104777746 0.07824577 0.08821311 0.016808188
0.06273085 0.059135515 -0.086894326 0.018288106 -0.041448727 -0.114800766 -0.1104362 -0.025167404
0.011928572 0.11899388 -0.058435973 -0.032682396 -0.010810238 -0.094698876 0.05204712 0.007515232
-0.10411227 -0.07506929 0.099087216 0.035956338 -0.00053193077 0.0026918924 -0.020747092 -0.029857827
0.012836805 -0.04736486 -0.06273526 0.05861107 0.037883498 0.0810848 -0.09700405 -0.09339497
-0.08749365 -0.05380209 0.056866072 -0.06768202 0.042593878 -0.045143258 0.05516604 -0.021667834
0.010056947 0.061328754 0.10582361 -0.015943974 0.06790146 0.031597335 0.07807355 0.11779622
-0.013009212 0.0108856065 -0.06866279 0.088416524 -0.06404909 0.05749056 0.04784255 0.03787979
0.10883042 0.100233436 0.06417634 -0.087026104 -0.01184455 -0.031044563 -0.011887 0.09449433
-0.11555649 0.02334863 -0.10914741 0.020838732 -0.019677507 0.102945074 -0.03815422 -0.072964795
0.10281317 0.105368674 0.065286286 -0.10614813 0.024192821 -0.032072075 -0.00071843725 0.04458093
0.060012408 0.06277914 -0.065615706 -0.042974934 -0.029212015 -0.008324877 0.04608702 -0.11451233
-0.017021663 0.07983723 0.06210703 0.045765683 0.08582247 0.08885743 0.009185176 0.05813748
-0.05451967 0.012428908 -0.0069118827 -0.05771961 0.11802542 0.007449308 0.011579579 -0.06693632
0.10256436 0.07709997 -0.11380366 0.082633734 0.07225993 -0.10064864 -0.027332464 0.0054265065
-0.0025790625 -0.057810966 -0.0016804403 0.0700792 0.07945681 -0.013392851 -0.108253784 0.10615217
-0.075973295 -0.115708195 0.06657626 -0.031563863 -0.020664042 -0.038835976 -0.026732828 -0.06635644
-0.07896544 -0.06761762 -0.11009002 -0.03554403 0.10126522 -0.10400426 0.023570593 -0.11332335
-0.01669457 0.07797223 -0.08049845 -0.0954309 0.012887459 0.035616055 -0.0013823864 -0.020728175

sequential/dense_1/MatMul f4 [15, 50]
00000000: c14c 8abe 0cb9 38be a0d0 62bc fec5 87be
00000010: c764 8fbe 8a7a 24be 18d4 f13d 8410 a33d
00000020: 8872 15bf d92d 91be 2226 bfbe cc26 e0be
00000030: f302 10bf 092e b03e 6543 f6be 20fe 8cbe
00000040: 66a9 013f 689c fd3d 4041 ecbb bfee 8fbd
00000050: a802 debd 866c 363e f2c0 de3e 4eae 813d
00000060: ad41 49be 384e 13bd 3db5 28be 3fa7 293d
00000070: 2062 b73e 4daa 2dbe 335c 89be 0425 3c3f
00000080: 0fda e33e 8ce8 be3d c0a7 d23e ee6c 24be
00000090: bcc7 573e 2f34 913d 5c81 62be 15e1 b4be
000000a0: f1cf a63e 296c 013e ab39 85be dd0e a9bd
000000b0: 7997 773e 6897 0a3d 1f12 2f3c ebd2 473e
000000c0: 6c8a fc3d 852d c03e 2fb8 45be 702b 85be
000000d0: d41a 7c3e c4d6 95be 4024 e1bb 84eb a2bd
000000e0: 866c 933e e099 763c ea77 e2be 7065 023d
000000f0: da2e da3e a051 b83e 9af5 bbbe 572b 86be
00000100: 17e3 753e 6b40 7c3e 02e0 c9be 6067 cb3d
00000110: c83e 89be d833 8a3e 2cf2 813d 8ea6 5dbe
00000120: 7771 233e 6cb7 78be 2c54 c73e 4052 fc3b
00000130: 9056 343d b09a 9cbd d0ae 1c3e 68c0 83be
00000140: a798 653e 4ae0 be3d fe77 28be 109e 353e
00000150: 8d71 dabe 4822 413e b82e 1a3d a91e 35bd
00000160: 902f 6f3d 4487 213e 0eec 1fbe a3f4 23be
00000170: 9ae4 89bd c979 12bd bb06 593e 2043 16be
00000180: ed47 c33e 048f 643d f24e b0be adfb 143d
00000190: d02f b23d 9878 ba3d 30af 723e 74e1 023e
000001a0: ae32 c9bd 7344 40be c65c 1d3e 12d1 b3bd
000001b0: 2bbc 2bbe f01a 3bbd ace5 db3d 8b10 88be
000001c0: 29f9 833e 8246 62be ec51 12be 8ff2 9cbb
000001d0: 4e2c 0ebe 6805 84bd b829 14bd a0e2 6fbd
000001e0: 820a 843e 78f5 1a3d 0148 083e 9227 f5bd
000001f0: 14a0 6c3e b4a6 b03d 32c9 833e fca5 423e
00000200: aacd 86be 103c 513e 9410 5e3e 6736 883e
00000210: da12 ccbd f2d8 2c3e e9de 58be 8f18 613e
00000220: 8c0b 7cbe 6704 52be 1895 6a3e 3d49 79be
00000230: 35f8 393e f146 7ebe 0ac0 53be e87c df3d
00000240: 3b75 70be bc36 743e 52a4 49bd 229d 023e
00000250: 1aaa 07be debe 3c3e 086d 07be e0c7 333e
00000260: 40cc 9d3b db08 2fbe b2b9 9a3e 78ec 83be
00000270: 184a c63d 1eb1 4fbe 60ea 1fbe b67d 8dbe
00000280: 3e5f 60be d0ca 083d 457e 0ebe 0877 79bd
00000290: 20bc c73c 10c7 a03c 9746 23be 420a 49be
000002a0: 72e7 f3bd f0f6 b83d 515c 21be 8628 aebd
000002b0: ec3e 993d ccda 9b3d 8896 2ebd 1180 82be
000002c0: 0ea4 65be d8e1 923e e552 2dbe bf01 9bbe
000002d0: 5c91 5c3e 7ebf 6cbe ca53 f8bd a6d8 93be
000002e0: 3eaa 75be 86d5 8dbe 7c65 843e 5db0 8ebe
000002f0: 5fcd 8dbe ebc8 93be 0a9c 923e 70ae 20bd
00000300: 1e7e 60be a226 283e b027 5abe 9cef 643e
00000310: c4bc 79be b8e2 803e 4462 7abd 30ea 493d
00000320: 45de 98be 40a5 843e c0b6 333e 00f8 543d
00000330: a6a0 983e 70bb 05bd 701c 9a3d e4e8 5bbe
00000340: a5f2 15bf 5643 2e3e 83b5 c23c 5308 00be
00000350: 7c0a a2bf 90dc 2c3e 972b 4bbf bbcf 2cbf
00000360: 06aa 083f 8037 523d 2461 7dbe f6f4 863e
00000370: 7e0d 76be 1ca9 63be cc5c ad3e b3df aebe
00000380: a880 8dbe c6e2 e5bd f4d4 09be 3889 1ebe
00000390: 0b77 a73e 8064 9e3c 8482 88be 8829 4f3f
000003a0: 2732 56bd 805b 143c 7d3a 5bbd a1f1 573e
000003b0: 807d 96bc 37fa 653e a43f a8bd d67f 4c3e
000003c0: d36d b73e 31bf 853e d2d7 3c3e 2397 5cbe
000003d0: 6a2d 19bf 3806 913e 7a17 bb3d 084a c0be
000003e0: 0995 823e 2f24 5d3e 8027 06be 0905 31be
000003f0: 10eb 3d3e 392c 57be 7863 313e 44c4 f6bd
-0.27011684 -0.1803934 -0.013843685 -0.26518244 -0.28006575 -0.1606237 0.11808032 0.079621345
-0.58377886 -0.2835529 -0.3733378 -0.437796 -0.562545 0.34410122 -0.48098293 -0.27537632
0.50649107 0.12383348 -0.007209927 -0.07027959 -0.108403504 0.17814836 0.4350658 0.06332074
-0.1965396 -0.035963267 -0.16475387 0.041419264 0.3581705 -0.16959496 -0.26828155 0.7349398
0.44502303 0.093216985 0.41143608 -0.16057178 0.21072286 0.07090031 -0.22119659 -0.35327974
0.32580522 0.12638916 -0.2602056 -0.08254788 0.24178876 0.0338358 0.010685473 0.19514053
0.123310894 0.3753473 -0.19308542 -0.26009703 0.24619609 -0.29265416 -0.0068707764 -0.07955077
0.28793734 0.015051335 -0.44232112 0.03183502 0.4261387 0.35999775 -0.36710817 -0.2620494
0.24012409 0.24633949 -0.39428717 0.099318266 -0.2680571 0.2699268 0.06345019 -0.21645567
0.15961252 -0.2428872 0.38931406 0.0077002347 0.044027865 -0.07646692 0.1530106 -0.25732732
0.22421513 0.093201235 -0.16452023 0.17736077 -0.42664757 0.18860734 0.03764221 -0.044218693
0.05839497 0.15774256 -0.15617391 -0.1601129 -0.067330554 -0.035760675 0.21193974 -0.14674044
0.38140813 0.055800453 -0.3443523 0.03637283 0.08700526 0.09105033 0.23699641 0.12781316
-0.098241195 -0.18776111 0.15367422 -0.08780111 -0.16770999 -0.045679986 0.10737166 -0.2657512
0.25776032 -0.22097209 -0.14289063 -0.0047896574 -0.13884088 -0.06446344 -0.0361726 -0.058565736
0.25789267 0.037831753 0.13308717 -0.11970438 0.2310794 0.08625546 0.25739437 0.1900863
-0.26328784 0.20433068 0.21686012 0.26604006 -0.09964533 0.16879633 -0.21178783 0.21982025
-0.2461378 -0.20509492 0.22908437 -0.24344344 0.1816109 -0.2483175 -0.20678726 0.10912496
-0.2348222 0.23849005 -0.049228974 0.12755254 -0.13248482 0.18432185 -0.13225186 0.17556715
0.0048156083 -0.17093222 0.302198 -0.2576635 0.09682101 -0.20282409 -0.1561675 -0.27634972
-0.21911332 0.033396542 -0.13915356 -0.060904533 0.024381697 0.01962617 -0.15944897 -0.1963282
-0.11909379 0.090314746 -0.15757872 -0.08503823 0.074827045 0.076100916 -0.042624027 -0.25488332
-0.22425863 0.2868793 -0.16926153 -0.3027477 0.21539825 -0.23119923 -0.121253565 -0.28876227
-0.23990723 -0.27701968 0.25858676 -0.2786893 -0.27695748 -0.28864226 0.28634673 -0.039228857
-0.2192311 0.16420987 -0.21304202 0.22357029 -0.24388415 0.25172973 -0.06112887 0.049295604
-0.29857078 0.25907326 0.17550182 0.051994324 0.29810065 -0.032649457 0.07524955 -0.2147556
-0.5857337 0.17017874 0.023768192 -0.12503175 -1.265945 0.16881013 -0.7936339 -0.6750447
0.53384435 0.05132246 -0.24744087 0.26358765 -0.24028584 -0.22232479 0.3385986 -0.34155044
-0.2763722 -0.11224894 -0.13460141 -0.15482032 0.3270801 0.019335032 -0.26662076 0.80922747
-0.052293923 0.009055018 -0.053522576 0.21088268 -0.01837039 0.2245873 -0.082152635 0.1997064
0.35825977 0.2612243 0.18441704 -0.21542029 -0.5983492 0.28325057 0.09135337 -0.3755648
0.2550433 0.21595834 -0.13101006 -0.17287077 0.185467 -0.21012963 0.173231 -0.120491534

sequential/dense_2/MatMul f4 [5, 15]
00000000: 08b1 a53e a47d cd3e 9099 e83e 80e6 263d
00000010: 2e9f 9f3e a9d8 873b c019 483e 2522 193f
00000020: f79f d9be c31f 81bd f81f 843d 4b67 0cbe
00000030: dc30 9b3e c8a5 36bf 85c5 57bf c088 81bf
00000040: df74 983e d293 be3e 3a65 b03e 685e 94be
00000050: 9ef1 323d bcae f4be f243 a63e 2c58 0c3f
00000060: aec2 66be 3337 f23e a9a5 03bf 138e 2ebf
00000070: 803f 803e 0952 bebf 76c4 babf 8eb8 c3be
00000080: f50d cbbe 5c24 513e aca0 0abf 1191 313f
00000090: bafc a93e f7c0 0d3f d28d a0bf dd09 173f
000000a0: 65bd f7bc 2783 793e 93e0 663e b667 143f
000000b0: d911 2abf 6c09 673e 028b 3dbf e4d1 da3e
000000c0: 7881 863e 6dee 0e3f 013a 103f 0084 593a
000000d0: b83d 5b3e 1a2d 493f e632 f23d d99c 86bf
000000e0: 4dc3 e3bd fd3a 64bf f29c 353d 2f48 06bf
000000f0: e306 fd3e 7437 523e 2ae0 dcbe 2038 28bd
00000100: 086c 3fbe 3c55 cfbe ec55 ef3e 2cb4 38bf
00000110: b434 bfbd 5162 56bf 94a5 6d3e f6b0 7ebf
00000120: 96ba 373f ae0c a83e 3465 8b3f
0.32361627 0.4013492 0.4542966 0.040747166 0.31176132 0.004145701 0.19541073 0.59817725
-0.42504856 -0.06304886 0.0645141 -0.13711278 0.30310714 -0.7134671 -0.84285766 -1.0119858
0.29776666 0.37222153 0.3445223 -0.28978276 0.043687455 -0.47789562 0.32473713 0.5482204
-0.22535202 0.4730774 -0.5142465 -0.6818554 0.25048447 -1.4868785 -1.4591205 -0.38226742
-0.39659086 0.20424026 -0.54151416 0.6936198 0.33200628 0.55372566 -1.254328 0.58999425
-0.030241678 0.24366437 0.22546606 0.5797075 -0.66433483 0.22562188 -0.74040234 0.4273826
0.26270652 0.5583256 0.56338507 0.00082975626 0.21410263 0.78584445 0.11826114 -1.0516616
-0.11121235 -0.8915251 0.044339128 -0.52453893 0.49419317 0.20528966 -0.43139774 -0.04106915
-0.18693554 -0.40494716 0.4674524 -0.7214992 -0.09336224 -0.8374377 0.23207694 -0.9948877
0.7176908 0.32822174 1.089026
